…
le Colab and restart your session.\n","You will be able to reuse this secret in all of your notebooks.\n","Please note that authentication is recommended but still optional to access public models or datasets.\n","  warnings.warn(\n"]},{"output_type":"display_data","data":{"text/plain":["model.safetensors:   0%|          | 0.00/46.8M [00:00<?, ?B/s]"],"application/vnd.jupyter.widget-view+json":{"version_major":2,"version_minor":0,"model_id":"fc41983df4ef4816b296386a85c5c9d8"}},"metadata":{}},{"output_type":"execute_result","data":{"text/plain":["TimmModel(\n","  (model): ResNet(\n","    (conv1): Conv2d(3, 64, kernel_size=(7, 7), stride=(2, 2), padding=(3, 3), bias=False)\n","    (bn1): BatchNorm2d(64, eps=1e-05, momentum=0.1, affine=True, track_running_stats=True)\n","    (act1): ReLU(inplace=True)\n","    (maxpool): MaxPool2d(kernel_size=3, stride=2, padding=1, dilation=1, ceil_mode=False)\n","    (layer1): Sequential(\n","      (0): BasicBlock(\n","        (conv1): Conv2d(64, 64, kernel_size=(3, 3), stride=(1, 1), padding=(1, 1), bias=False)\n","        (bn1): BatchNorm2d(64, eps=1e-05, momentum=0.1, affine=True, track_running_stats=True)\n","        (drop_block): Identity()\n","        (act1): ReLU(inplace=True)\n","        (aa): Identity()\n","        (conv2): Conv2d(64, 64, kernel_size=(3, 3), stride=(1, 1), padding=(1, 1), bias=False)\n","        (bn2): BatchNorm2d(64, eps=1e-05, momentum=0.1, affine=True, track_running_stats=True)\n","        (act2): ReLU(inplace=True)\n","      )\n","      (1): BasicBlock(\n","        (conv1): Conv2d(64, 64, kernel_size=(3, 3), stride=(1, 1), padding=(1, 1), bias=False)\n","        (bn1): BatchNorm2d(64, eps=1e-05, momentum=0.1, affine=True, track_running_stats=True)\n","        (drop_block): Identity()\n","        (act1): ReLU(inplace=True)\n","        (aa): Identity()\n","        (conv2): Conv2d(64, 64, kernel_size=(3, 3), stride=(1, 1), padding=(1, 1), bias=False)\n","        (bn2): BatchNorm2d(64, eps=1e-05, momentum=0.1, affine=True, track_running_stats=True)\n","        (act2): ReLU(inplace=True)\n","      )\n","    )\n","    (layer2): Sequential(\n","      (0): BasicBlock(\n","        (conv1): Conv2d(64, 128, kernel_size=(3, 3), stride=(2, 2), padding=(1, 1), bias=False)\n","        (bn1): BatchNorm2d(128, eps=1e-05, momentum=0.1, affine=True, track_running_stats=True)\n","        (drop_block): Identity()\n","        (act1): ReLU(inplace=True)\n","        (aa): Identity()\n","        (conv2): Conv2d(128, 128, kernel_size=(3, 3), stride=(1, 1), padding=(1, 1), bias=False)\n","        (bn2): BatchNorm2d(128, eps=1e-05, momentum=0.1, affine=True, track_running_stats=True)\n","        (act2): ReLU(inplace=True)\n","        (downsample): Sequential(\n","          (0): Conv2d(64, 128, kernel_size=(1, 1), stride=(2, 2), bias=False)\n","          (1): BatchNorm2d(128, eps=1e-05, momentum=0.1, affine=True, track_running_stats=True)\n","        )\n","      )\n","      (1): BasicBlock(\n","        (conv1): Conv2d(128, 128, kernel_size=(3, 3), stride=(1, 1), padding=(1, 1), bias=False)\n","        (bn1): BatchNorm2d(128, eps=1e-05, momentum=0.1, affine=True, track_running_stats=True)\n","        (drop_block): Identity()\n","        (act1): ReLU(inplace=True)\n","        (aa): Identity()\n","        (conv2): Conv2d(128, 128, kernel_size=(3, 3), stride=(1, 1), padding=(1, 1), bias=False)\n","        (bn2): BatchNorm2d(128, eps=1e-05, momentum=0.1, affine=True, track_running_stats=True)\n","        (act2): ReLU(inplace=True)\n","      )\n","    )\n","    (layer3): Sequential(\n","      (0): BasicBlock(\n","        (conv1): Conv2d(128, 256, kernel_size=(3, 3), stride=(2, 2), padding=(1, 1), bias=False)\n","        (bn1): BatchNorm2d(256, eps=1e-05, momentum=0.1, affine=True, track_running_stats=True)\n","        (drop_block): Identity()\n","        (act1): ReLU(inplace=True)\n","        (aa): Identity()\n","        (conv2): Conv2d(256, 256, kernel_size=(3, 3), stride=(1, 1), padding=(1, 1), bias=False)\n","        (bn2): BatchNorm2d(256, eps=1e-05, momentum=0.1, affine=True, track_running_stats=True)\n","        (act2): ReLU(inplace=True)\n","        (downsample): Sequential(\n","          (0): Conv2d(128, 256, kernel_size=(1, 1), stride=(2, 2), bias=False)\n","          (1): BatchNorm2d(256, eps=1e-05, momentum=0.1, affine=True, track_running_stats=True)\n","        )\n","      )\n","      (1): BasicBlock(\n","        (conv1): Conv2d(256, 256, kernel_size=(3, 3), stride=(1, 1), padding=(1, 1), bias=False)\n","        (bn1): BatchNorm2d(256, eps=1e-05, momentum=0.1, affine=True, track_running_stats=True)\n","        (drop_block): Identity()\n","        (act1): ReLU(inplace=True)\n","        (aa): Identity()\n","        (conv2): Conv2d(256, 256, kernel_size=(3, 3), stride=(1, 1), padding=(1, 1), bias=False)\n","        (bn2): BatchNorm2d(256, eps=1e-05, momentum=0.1, affine=True, track_running_stats=True)\n","        (act2): ReLU(inplace=True)\n","      )\n","    )\n","    (layer4): Sequential(\n","      (0): BasicBlock(\n","        (conv1): Conv2d(256, 512, kernel_size=(3, 3), stride=(2, 2), padding=(1, 1), bias=False)\n","        (bn1): BatchNorm2d(512, eps=1e-05, momentum=0.1, affine=True, track_running_stats=True)\n","        (drop_block): Identity()\n","        (act1): ReLU(inplace=True)\n","        (aa): Identity()\n","        (conv2): Conv2d(512, 512, kernel_size=(3, 3), stride=(1, 1), padding=(1, 1), bias=False)\n","        (bn2): BatchNorm2d(512, eps=1e-05, momentum=0.1, affine=True, track_running_stats=True)\n","        (act2): ReLU(inplace=True)\n","        (downsample): Sequential(\n","          (0): Conv2d(256, 512, kernel_size=(1, 1), stride=(2, 2), bias=False)\n","          (1): BatchNorm2d(512, eps=1e-05, momentum=0.1, affine=True, track_running_stats=True)\n","        )\n","      )\n","      (1): BasicBlock(\n","        (conv1): Conv2d(512, 512, kernel_size=(3, 3), stride=(1, 1), padding=(1, 1), bias=False)\n","        (bn1): BatchNorm2d(512, eps=1e-05, momentum=0.1, affine=True, track_running_stats=True)\n","        (drop_block): Identity()\n","        (act1): ReLU(inplace=True)\n","        (aa): Identity()\n","        (conv2): Conv2d(512, 512, kernel_size=(3, 3), stride=(1, 1), padding=(1, 1), bias=False)\n","        (bn2): BatchNorm2d(512, eps=1e-05, momentum=0.1, affine=True, track_running_stats=True)\n","        (act2): ReLU(inplace=True)\n","      )\n","    )\n","    (global_pool): SelectAdaptivePool2d(pool_type=avg, flatten=Flatten(start_dim=1, end_dim=-1))\n","    (fc): Linear(in_features=512, out_features=500, bias=True)\n","  )\n",")"]},"metadata":{},"execution_count":19}],"source":["# 학습에 사용할 Model을 선언.\n","# model_selector = ModelSelector(\n","#     model_type='timm',\n","#     num_classes=num_classes,\n","#     model_name='resnet18',\n","#     pretrained=True\n","# )\n","# model = model_selector.get_model()\n","\n","# # 선언된 모델을 학습에 사용할 장비로 셋팅.\n","# model.to(device
…
,"metadata":{"colab":{"base_uri":"https://localhost:8080/"},"id":"KlPsK5NgGorz","executionInfo":{"status":"ok","timestamp":1726051449718,"user_tz":-540,"elapsed":4,"user":{"displayName":"함로운","userId":"00672508570315667535"}},"outputId":"07efdf96-58cc-4f7b-a85b-9b54f506e787"},"id":"KlPsK5NgGorz","execution_count":null,"outputs":[{"output_type":"execute_result","data":{"text/plain":["SwinTransformerLightning(\n","  (model): SwinForImageClassification(\n","    (swin): SwinModel(\n","      (embeddings): SwinEmbeddings(\n","        (patch_embeddings): SwinPatchEmbeddings(\n","          (projection): Conv2d(3, 128, kernel_size=(4, 4), stride=(4, 4))\n","        )\n","        (norm): LayerNorm((128,), eps=1e-05, elementwise_affine=True)\n","        (dropout): Dropout(p=0.0, inplace=False)\n","      )\n","      (encoder): SwinEncoder(\n","        (layers): ModuleList(\n","          (0): SwinStage(\n","            (blocks): ModuleList(\n","              (0-1): 2 x SwinLayer(\n","                (layernorm_before): LayerNorm((128,), eps=1e-05, elementwise_affine=True)\n","                (attention): SwinAttention(\n","                  (self): SwinSelfAttention(\n","                    (query): Linear(in_features=128, out_features=128, bias=True)\n","                    (key): Linear(in_features=128, out_features=128, bias=True)\n","                    (value): Linear(in_features=128, out_features=128, bias=True)\n","                    (dropout): Dropout(p=0.0, inplace=False)\n","                  )\n","                  (output): SwinSelfOutput(\n","                    (dense): Linear(in_features=128, out_features=128, bias=True)\n","                    (dropout): Dropout(p=0.0, inplace=False)\n","                  )\n","                )\n","                (drop_path): SwinDropPath(p=0.1)\n","                (layernorm_after): LayerNorm((128,), eps=1e-05, elementwise_affine=True)\n","                (intermediate): SwinIntermediate(\n","                  (dense): Linear(in_features=128, out_features=512, bias=True)\n","                  (intermediate_act_fn): GELUActivation()\n","                )\n","                (output): SwinOutput(\n","                  (dense): Linear(in_features=512, out_features=128, bias=True)\n","                  (dropout): Dropout(p=0.0, inplace=False)\n","                )\n","              )\n","            )\n","            (downsample): SwinPatchMerging(\n","              (reduction): Linear(in_features=512, out_features=256, bias=False)\n","              (norm): LayerNorm((512,), eps=1e-05, elementwise_affine=True)\n","            )\n","          )\n","          (1): SwinStage(\n","            (blocks): ModuleList(\n","              (0-1): 2 x SwinLayer(\n","                (layernorm_before): LayerNorm((256,), eps=1e-05, elementwise_affine=True)\n","                (attention): SwinAttention(\n","                  (self): SwinSelfAttention(\n","                    (query): Linear(in_features=256, out_features=256, bias=True)\n","                    (key): Linear(in_features=256, out_features=256, bias=True)\n","                    (value): Linear(in_features=256, out_features=256, bias=True)\n","                    (dropout): Dropout(p=0.0, inplace=False)\n","                  )\n","                  (output): SwinSelfOutput(\n","                    (dense): Linear(in_features=256, out_features=256, bias=True)\n","                    (dropout): Dropout(p=0.0, inplace=False)\n","                  )\n","                )\n","                (drop_path): SwinDropPath(p=0.1)\n","                (layernorm_after): LayerNorm((256,), eps=1e-05, elementwise_affine=True)\n","                (intermediate): SwinIntermediate(\n","                  (dense): Linear(in_features=256, out_features=1024, bias=True)\n","                  (intermediate_act_fn): GELUActivation()\n","                )\n","                (output): SwinOutput(\n","                  (dense): Linear(in_features=1024, out_features=256, bias=True)\n","                  (dropout): Dropout(p=0.0, inplace=False)\n","                )\n","              )\n","            )\n","            (downsample): SwinPatchMerging(\n","              (reduction): Linear(in_features=1024, out_features=512, bias=False)\n","              (norm): LayerNorm((1024,), eps=1e-05, elementwise_affine=True)\n","            )\n","          )\n","          (2): SwinStage(\n","            (blocks): ModuleList(\n","              (0-17): 18 x SwinLayer(\n","                (layernorm_before): LayerNorm((512,), eps=1e-05, elementwise_affine=True)\n","                (attention): SwinAttention(\n","                  (self): SwinSelfAttention(\n","                    (query): Linear(in_features=512, out_features=512, bias=True)\n","                    (key): Linear(in_features=512, out_features=512, bias=True)\n","                    (value): Linear(in_features=512, out_features=512, bias=True)\n","                    (dropout): Dropout(p=0.0, inplace=False)\n","                  )\n","                  (output): SwinSelfOutput(\n","                    (dense): Linear(in_features=512, out_features=512, bias=True)\n","                    (dropout): Dropout(p=0.0, inplace=False)\n","                  )\n","                )\n","                (drop_path): SwinDropPath(p=0.1)\n","                (layernorm_after): LayerNorm((512,), eps=1e-05, elementwise_affine=True)\n","                (intermediate): SwinIntermediate(\n","                  (dense): Linear(in_features=512, out_features=2048, bias=True)\n","                  (intermediate_act_fn): GELUActivation()\n","                )\n","                (output): SwinOutput(\n","                  (dense): Linear(in_features=2048, out_features=512, bias=True)\n","                  (dropout): Dropout(p=0.0, inplace=False)\n","                )\n","              )\n","            )\n","            (downsample): SwinPatchMerging(\n","              (reduction): Linear(in_features=2048, out_features=1024, bias=False)\n","              (norm): LayerNorm((2048,), eps=1e-05, elementwise_affine=True)\n","            )\n","          )\n","          (3): SwinStage(\n","            (blocks): ModuleList(\n","              (0-1): 2 x SwinLayer(\n","                (layernorm_before): LayerNorm((1024,), eps=1e-05, elementwise_affine=True)\n","                (attention): SwinAttention(\n","                  (self): SwinSelfAttention(\n","                    (query): Linear(in_features=1024, out_features=1024, bias=True)\n","                    (key): Linear(in_features=1024, out_features=1024, bias=True)\n","                    (value): Linear(in_features=1024, out_features=1024, bias=True)\n","                    (dropout): Dropout(p=0.0, inplace=False)\n","                  )\n","                  (output): SwinSelfOutput(\n","                    (dense): Linear(in_features=1024, out_features=1024, bias=True)\n","                    (dropout): Dropout(p=0.0, inplace=False)\n","                  )\n","                )\n","                (drop_path): SwinDropPath(p=0.1)\n","                (layernorm_after): LayerNorm((1024,), eps=1e-05, elementwise_affine=True)\n","                (intermediate): SwinIntermediate(\n","                  (dense): Linear(in_features=1024, out_features=4096, bias=True)\n","                  (intermediate_act_fn): GELUActivation()\n","                )\n","                (output): SwinOutput(\n","                  (dense): Linear(in_features=4096, out_features=1024, bias=True)\n","                  (dropout): Dropout(p=0.0, inplace=False)\n","                )\n","              )\n","            )\n","          )\n","        )\n","      )\n","      (layernorm): LayerNorm((1024,), eps=1e-05, elementwise_affine=True)\n","      (pooler): AdaptiveAvgPool1d(output_size=1)\n","    )\n","    (classifier): Linear(in_features=1024, out_features=500, bias=True)\n","  )\n","  (loss_fn): CrossEntropyLoss()\n",")"]},"metadata":{},"execution_count":27}]},{"cell_type":"code","source":["# Start tensorboard.\n","%load_ext tensorboard\n","%tensorboard --logdir lightning_logs/"],"metadata":{"colab":{"base_uri":"https://localhost:8080/","height":859},"id":"kn5IdhG7Heeh","executionInfo":{"status":"ok","timestamp":17260
…
